…
tensor([-0.6789], requires_grad=True))]), '_buffers': OrderedDict(), '_non_persistent_buffers_set': set(), '_backward_hooks': OrderedDict(), '_is_full_backward_hook': None, '_forward_hooks': OrderedDict(), '_forward_pre_hooks': OrderedDict(), '_state_dict_hooks': OrderedDict(), '_load_state_dict_pre_hooks': OrderedDict(), '_modules': OrderedDict(), 'in_features': 2, 'out_features': 1}
{'training': True, '_parameters': OrderedDict(), '_buffers': OrderedDict(), '_non_persistent_buffers_set': set(), '_backward_hooks': OrderedDict(), '_is_full_backward_hook': None, '_forward_hooks': OrderedDict(), '_forward_pre_hooks': OrderedDict(), '_state_dict_hooks': OrderedDict(), '_load_state_dict_pre_hooks': OrderedDict(), '_modules': OrderedDict([('model_bind', FullyConnected(
  (latent_layer): Linear(in_features=3, out_features=1, bias=True)
  (nonlinearity_1): Linear(in_features=1, out_features=2, bias=True)
  (output_layer): Linear(in_features=2, out_features=1, bias=True)
))]), 'input_size': 3, 'target_names': [None, None], 'output_size': 2, 'alphabet': None, 'freeze_betas': False, 'monotonic_sign': None, 'layers': [], 'training_style_sequence': [<bound method TorchdmsModel.default_training_style of Independent(
  (model_bind): FullyConnected(
    (latent_layer): Linear(in_features=3, out_features=1, bias=True)
    (nonlinearity_1): Linear(in_features=1, out_features=2, bias=True)
    (output_layer): Linear(in_features=2, out_features=1, bias=True)
  )
)>]}
YOOOOOOOOOOOOOOOO YOOOOOOOOOOOOOOOO {'training': True, '_parameters': OrderedDict([('weight', Parameter containing:
tensor([[-0.2996,  0.0671, -0.4972]], requires_grad=True)), ('bias', Parameter containing:
tensor([0.0012], requires_grad=True))]), '_buffers': OrderedDict(), '_non_persistent_buffers_set': set(), '_backward_hooks': OrderedDict(), '_is_full_backward_hook': None, '_forward_hooks': OrderedDict(), '_forward_pre_hooks': OrderedDict(), '_state_dict_hooks': OrderedDict(), '_load_state_dict_pre_hooks': OrderedDict(), '_modules': OrderedDict(), 'in_features': 3, 'out_features': 1}
…
tensor([0.1105], requires_grad=True))]), '_buffers': OrderedDict(), '_non_persistent_buffers_set': set(), '_backward_hooks': OrderedDict(), '_is_full_backward_hook': None, '_forward_hooks': OrderedDict(), '_forward_pre_hooks': OrderedDict(), '_state_dict_hooks': OrderedDict(), '_load_state_dict_pre_hooks': OrderedDict(), '_modules': OrderedDict(), 'in_features': 2, 'out_features': 1}
{'training': True, '_parameters': OrderedDict(), '_buffers': OrderedDict(), '_non_persistent_buffers_set': set(), '_backward_hooks': OrderedDict(), '_is_full_backward_hook': None, '_forward_hooks': OrderedDict(), '_forward_pre_hooks': OrderedDict(), '_state_dict_hooks': OrderedDict(), '_load_state_dict_pre_hooks': OrderedDict(), '_modules': OrderedDict([('model_bind', FullyConnected(
  (latent_layer): Linear(in_features=3, out_features=1, bias=True)
  (nonlinearity_1): Linear(in_features=1, out_features=2, bias=True)
  (output_layer): Linear(in_features=2, out_features=1, bias=True)
)), ('model_stab', FullyConnected(
  (latent_layer): Linear(in_features=3, out_features=1, bias=True)
  (nonlinearity_1): Linear(in_features=1, out_features=2, bias=True)
  (output_layer): Linear(in_features=2, out_features=1, bias=True)
))]), 'input_size': 3, 'target_names': [None, None], 'output_size': 2, 'alphabet': None, 'freeze_betas': False, 'monotonic_sign': None, 'layers': [], 'training_style_sequence': [<bound method TorchdmsModel.default_training_style of Independent(
  (model_bind): FullyConnected(
    (latent_layer): Linear(in_features=3, out_features=1, bias=True)
    (nonlinearity_1): Linear(in_features=1, out_features=2, bias=True)
    (output_layer): Linear(in_features=2, out_features=1, bias=True)
  )
  (model_stab): FullyConnected(
    (latent_layer): Linear(in_features=3, out_features=1, bias=True)
    (nonlinearity_1): Linear(in_features=1, out_features=2, bias=True)
    (output_layer): Linear(in_features=2, out_features=1, bias=True)
  )
)>]}
YOOOOOOOOOOOOOOOO YOOOOOOOOOOOOOOOO {'training': True, '_parameters': OrderedDict([('weight', Parameter containing:
tensor([[-0.2996,  0.0671, -0.4972]], requires_grad=True)), ('bias', Parameter containing:
tensor([0.0012], requires_grad=True))]), '_buffers': OrderedDict(), '_non_persistent_buffers_set': set(), '_backward_hooks': OrderedDict(), '_is_full_backward_hook': None, '_forward_hooks': OrderedDict(), '_forward_pre_hooks': OrderedDict(), '_state_dict_hooks': OrderedDict(), '_load_state_dict_pre_hooks': OrderedDict(), '_modules': OrderedDict(), 'in_features': 3, 'out_features': 1}
…
